weight/acla_anode_best_v1.pt (torch, 286391 bytes, 24 tensors)

attn.weight f4 [10, 10]
000000 d0 fb a2 be 5a 18 c6 3c 4d 75 87 3d 57 02 d1 bd
       -0.31832743 0.024181534 0.0661417 -0.102055244
000010 56 d3 3a be 85 9f 98 be 8f 50 85 3d ad fb 1f 3e
       -0.18244681 -0.29809204 0.06509506 0.1562335
000020 cf c4 33 be e3 a1 02 be 69 c7 ff 3d 70 16 6e 3d
       -0.17555545 -0.12757067 0.12489206 0.058126867
000030 a9 10 8a be bd 12 1e 3e 57 38 31 3e 69 32 26 be
       -0.26965836 0.15436836 0.17306648 -0.16230167
000040 e9 90 da 3d dd ea 0e 3e d5 af 95 3d 83 3c 14 3c
       0.10672171 0.1395678 0.07308928 0.00904763
000050 1b 9e 83 3e 49 84 d5 bd 4f de 76 3e 23 91 96 3e
       0.25706562 -0.10425622 0.24108241 0.29407606
000060 bc fb 96 be 21 b7 18 3e 81 d2 6e 3e e2 39 9e 3e
       -0.29488933 0.14913608 0.23322488 0.30903536
000070 0c 7d a1 3c 1f c2 79 3e 65 b5 80 be e4 e9 3f be
       0.019712947 0.24390458 -0.25138393 -0.18741566
000080 dd e2 11 be b4 a5 ac bd 99 88 75 bc c5 ed e2 3d
       -0.14246698 -0.08430043 -0.014986181 0.11080507
000090 fa 6d 4b 3d d1 0e 5e 3c d0 dc 92 3d bd dd 08 be
       0.04966543 0.013553337 0.07171023 -0.13365836
0000a0 1e 75 98 3d b3 5c 01 3e 2d 23 8a be 31 a3 21 3e
       0.07444213 0.12633018 -0.26979962 0.15784909
0000b0 54 4a 39 3e ff d4 89 be e1 04 9a 3c b7 e8 00 3e
       0.1809476 -0.26920316 0.018801155 0.12588774
0000c0 6a b9 80 3e d0 fa 27 3e e5 50 0a 3e 1d e9 8e be
       0.2514146 0.16404271 0.13507421 -0.27912226
0000d0 71 14 2b 3e d8 fd 96 3e c0 f3 9f 3e 2f e5 41 3e
       0.16707017 0.29490542 0.31240654 0.18935083
0000e0 4b 4c 79 be 29 11 df 3d 10 c3 85 be 79 d3 86 3d
       -0.2434551 0.10891945 -0.26125383 0.06583304
0000f0 9c bf c1 3b 33 b1 97 be 34 86 8d be 0a 9a 80 3d
       0.005912734 -0.2962738 -0.2764145 0.062793806
000100 23 af 84 3e 41 1d 11 be 05 82 49 be 51 9a d8 bd
       0.2591487 -0.14171316 -0.19678505 -0.105763085
000110 ce 85 87 3e 7f 7d d2 3d 39 25 8d be 27 b1 28 3d
       0.26469272 0.10277843 -0.2756746 0.04118457
000120 53 74 33 bd b7 13 16 3e c8 98 a9 bd e8 61 18 be
       -0.043812107 0.14655958 -0.08281094 -0.14881098
000130 68 e2 34 3e 61 b6 12 be 83 30 ca bb 91 66 15 3b
       0.17664492 -0.14327385 -0.006170334 0.002279673
000140 cd 0d 98 3e a3 9d 31 3c 92 9d 30 bd 94 53 90 bd
       0.2969803 0.010840806 -0.04311902 -0.07047191
000150 7c c5 13 3e 41 eb 74 3d be 8b 41 3e 21 a9 8e be
       0.14430803 0.059794668 0.18900964 -0.2786341
000160 88 e2 bd be d0 3f 3e bd c8 30 6e be 91 c4 ff 3d
       -0.37086892 -0.046447575 -0.23260796 0.12488664
000170 1f 61 11 bd 47 7b eb 3d 75 79 89 3e d9 b5 e7 3d
       -0.035493013 0.11498123 0.26850477 0.113139816
000180 79 82 a2 3e be 0e 26 3d 82 4b 9d be 2e ac 05 3e
       0.31740168 0.040541403 -0.3072167 0.13053963

attn.bias f4 [10]
000000 24 c1 99 be 2b 48 89 3e 75 14 22 be 7f b2 71 3e
       -0.30030167 0.26812872 -0.15828116 0.23603247
000010 6f 63 98 3c 99 ac 20 3c c4 e9 d0 3b 7b d3 2c be
       0.018602101 0.0098067755 0.0063755233 -0.16877548
000020 6a 3d 2f be 03 7b 97 bd
       -0.17113271 -0.073965095

conv1.weight f4 [64, 10, 3]
000000 3a 02 b1 bd 14 f2 f7 bd 95 3c 0d 3e d2 4d 1a be
       -0.08643003 -0.121067196 0.13792641 -0.15068749
000010 bf da c8 3d d5 8c c1 bc 74 9c 2c 3e 0a 49 09 3e
       0.098073475 -0.023626724 0.16856557 0.13406768
000020 d3 a9 92 bd cd 42 5e 3d 21 4e 71 bd c6 b7 56 bd
       -0.07161298 0.054262925 -0.0589124 -0.052421354
000030 7f c3 9b bc 05 56 c5 bd 89 55 0b 3e e8 cf b3 bd
       -0.019014118 -0.096355475 0.13606848 -0.08779889
000040 79 a4 c5 3d 6d d1 8e 3d 7b bb 28 3d 57 19 39 be
       0.09650511 0.069735385 0.04119442 -0.18076073
000050 b2 74 54 be e3 16 38 bd e5 eb 3b bd 9a 58 22 ba
       -0.2074764 -0.0449437 -0.045879263 -0.0006193012
000060 51 09 2e be 11 c7 19 3e 78 40 13 be 31 4f fc bd
       -0.16995741 0.15017344 -0.14380062 -0.12319792
000070 45 82 94 3d e7 ba ca 3d fb 7e ca bd be dd 89 bc
       0.072514094 0.0989893 -0.09887501 -0.016829368
000080 17 18 27 be 19 77 73 bd e8 53 dc bd 2f 4c 24 3e
       -0.16317783 -0.059439752 -0.10758191 0.16044687
000090 f7 64 1b be 81 9f 1a be 01 a3 39 be 49 97 9a 3d
       -0.15175234 -0.15099908 -0.18128587 0.075483866
0000a0 1f 29 42 bd 0a bc d9 bb 04 1e ca 3d 30 8c 0c 3a
       -0.047402497 -0.0066447305 0.09869006 0.0005361466
0000b0 44 54 b3 bc bb 35 1c 3e 11 73 05 3e 79 98 b6 3d
       -0.021890767 0.15254872 0.13032176 0.089158006
0000c0 be 98 28 3e 82 8f df bd f5 1a 5c 3e 93 df b4 3d
       0.16464517 -0.10916044 0.21494658 0.08831706
0000d0 83 54 52 3d 7f 5f 36 bd af 01 cd bd 77 0e c7 3d
       0.051350128 -0.044524666 -0.10010087 0.09719556
0000e0 e5 99 b9 3d b6 bf 46 3e 42 79 c2 3d dc 20 f9 3c
       0.09062556 0.1940907 0.09495784 0.030411176
0000f0 b7 9c 55 be b3 e0 44 be f3 72 d2 bd 74 06 12 bd
       -0.20860563 -0.19226341 -0.10275831 -0.035650685
000100 9c bc 75 3d ba f5 c1 3d e9 92 cb bd 56 33 50 be
       0.059994325 0.09470697 -0.0994013 -0.20332083
000110 3d de cb bd fb a0 02 3e 40 9a 1e 3e 34 d2 99 3d
       -0.09954498 0.12756722 0.15488529 0.07510796
000120 e7 de 2c 3e 0e d1 05 3d 88 f3 0d 3e bd a4 c6 3d
       0.16881905 0.032670073 0.13862431 0.0969939
000130 dd b3 ba 3d 8d cc ad 3d 6e f0 ea 3d a2 8b c7 3d
       0.091163374 0.084862806 0.114716396 0.0974343
000140 fc ef cc 3d e2 52 36 bd 3a e6 8d 3d ce e5 08 3b
       0.10006711 -0.044512637 0.06928678 0.0020888927
000150 86 1e bb 3d f5 ae 3d 3e eb 4b 0f bd 7d 73 0f 3c
       0.09136681 0.18523772 -0.03498451 0.008755562
000160 b3 53 9a 3d 2a ce ee 3b 62 64 13 3e d5 08 f5 3d
       0.075354956 0.0072877603 0.14393762 0.11964575
000170 58 e5 d9 bd 4e d5 3a be ef c3 1e bd 26 c6 7d 3d
       -0.10639447 -0.18245432 -0.038761076 0.061956547
000180 ec f6 a9 3d 0e 76 85 3c f6 22 47 be db 49 c0 bd
       0.0829905 0.016291644 -0.1944693 -0.09389087
000190 7b 05 4a 3e df 46 9c bb 39 21 eb bd 9a 35 b3 bd
       0.19728653 -0.0047691907 -0.11480946 -0.08750458
0001a0 88 70 44 3d e1 53 1b 3e 79 6b 97 3b 81 c1 d5 bc
       0.04795888 0.15168716 0.004620966 -0.026093246
0001b0 d8 6b a2 3d 0f cb ae 3d f7 ae 62 3c 9e 03 9d bd
       0.07930726 0.08534824 0.01383566 -0.076667055
0001c0 de b8 0a be 3e 69 b0 bd 54 ea 14 3c e6 c8 84 3d
       -0.13547084 -0.08613823 0.009089071 0.06483631
0001d0 cd d9 ae bd 5a db 85 3c e2 29 1f 3e e3 3c 52 3d
       -0.08537636 0.016339947 0.15543321 0.051327597
0001e0 42 9c d8 bb 26 b2 09 be 83 51 c4 3d 4c 24 07 3d
       -0.0066104243 -0.13446864 0.095858596 0.0329936
0001f0 32 22 23 be b2 21 9d bd 9a 83 ff 3d 42 87 10 3e
       -0.15931013 -0.076724425 0.12476273 0.14114097
000200 32 04 0e be ec d8 3e bd e5 62 d5 bd 37 bf 07 3e
       -0.13868788 -0.04659359 -0.10419253 0.13256536
000210 87 31 09 3e 38 72 07 be d6 4b cb bd 61 2e 47 bc
       0.133978 -0.13227165 -0.09926574 -0.012157054
000220 4d 2a de 3d 21 c0 ed 3b 8f ac 85 3e ef e4 57 3e
       0.10847912 0.0072555696 0.26108214 0.21083425
000230 a6 f9 bb 3d 76 ab 85 3d 65 a0 4a bb 22 21 2a 3e
       0.09178476 0.06526844 -0.0030918356 0.16614202
000240 03 5d 29 3e 46 9a 1c 3e bf 42 d4 3b 00 3f f1 3d
       0.16539387 0.15293226 0.0064776833 0.117795944
000250 b8 81 e1 3d a2 63 6d 3e a2 dc 44 3d e4 a0 60 be
       0.1101107 0.23182538 0.048061974 -0.21936375
000260 82 1c 8a bd 56 22 9c bc bb 00 1f be 95 33 a9 bd
       -0.06743719 -0.019059341 -0.15527622 -0.082617916
000270 3c 86 1f be e7 dc 22 be ca 6d 10 be 99 5c 1a 3e
       -0.1557855 -0.1590458 -0.14104381 0.15074386
000280 83 41 03 3e 08 35 a4 3d b4 0f 08 3e 15 06 39 bd
       0.1281796 0.080179274 0.1328724 -0.045171816
000290 79 da 4e bd e1 aa e1 bd a7 d7 ca bd c1 3f f8 bb
       -0.05050132 -0.11018921 -0.09904414 -0.0075759594
0002a0 9b 72 03 3e 47 61 17 3e 1d 57 55 3e 19 02 15 3e
       0.12836687 0.14783202 0.20834012 0.14551581
0002b0 e1 36 83 3d c0 0c 97 bd 2d 07 8a bd a0 be 60 bc
       0.06406952 -0.07375479 -0.0673965 -0.013717324
0002c0 fb bd ac bd 05 6e 45 3e 6c 43 4c 3d 69 ed fe 3a
       -0.084346734 0.1928025 0.049868986 0.0019449416
0002d0 b9 9e b9 3d ca 32 c1 bd 2f b0 d9 3b 34 67 a0 bd
       0.09063477 -0.09433515 0.006643317 -0.078321844
0002e0 44 77 87 bd b1 58 cf 3d ad df 12 3e bd 3a 94 bd
       -0.06614545 0.101243384 0.14343138 -0.07237766
0002f0 63 1f 09 be cb 1e ba 3d bf e1 ff 3d 89 c3 28 be
       -0.1339088 0.090879045 0.124942295 -0.1648084
000300 af 14 f7 bb 33 e4 95 bc a5 f0 1e 3d 69 ed ef 3d
       -0.0075403075 -0.01829729 0.038803715 0.11715204
000310 01 3d 30 bd a5 e2 c5 bd a4 da 14 bd 4d a5 43 3e
       -0.043026928 -0.0966237 -0.036341324 0.19106026
000320 56 ef 05 3e 11 4a 12 bb d9 2c a1 bd ac c4 ac bc
       0.1307958 -0.002232198 -0.07869882 -0.021089874
000330 56 51 a2 3d 41 6b 80 3c 72 05 af bd 5d 60 fb bd
       0.0792567 0.015676143 -0.085459605 -0.12274239
000340 94 e9 a3 3c 2c 08 11 3d d0 b9 3a 3e 14 7f 3c bd
       0.02000884 0.035408184 0.18234944 -0.04601963
000350 6e 75 0a bd b3 52 28 3e 05 fd 5d 3d 15 1c bf bd
       -0.033803396 0.16437797 0.054196376 -0.09331528
000360 77 5b ce bd ee 7d ba bd 61 8f 2f be 4b d8 2a be
       -0.10076039 -0.091060504 -0.17144538 -0.16684072
000370 98 1b ea 3c a0 83 f9 bb 24 14 a7 bd 78 34 41 3e
       0.02857761 -0.007614568 -0.081581384 0.18867671
000380 d0 9b 44 3e 2d 9b 4c 3d cf 77 26 3e cd 2e bd 3d
       0.19200063 0.049952675 0.16256641 0.09237442
000390 27 28 2d be f0 ce 51 be 19 22 b2 3d ad 95 97 3d
       -0.16909848 -0.20489097 0.0869791 0.07401595
0003a0 7d fc 39 3d a2 6a a2 bd 72 ee 02 3c 1a 0b 35 3d
       0.045406807 -0.07930495 0.00799142 0.04420004
0003b0 a6 5f a0 bd 11 4b 16 3e b8 51 a5 3d 04 e5 7d bd
       -0.078307435 0.14677073 0.08072227 -0.061985984
0003c0 d7 44 24 3e bd d7 e8 3c 29 65 11 be da a6 b7 bd
       0.16041885 0.028423185 -0.14198746 -0.08967371
0003d0 5b f9 df bd 08 2d f2 bc 90 9d 66 3d bd b3 a7 3c
       -0.10936233 -0.029562488 0.056302607 0.020471448
0003e0 68 56 0f be b3 76 73 bb 01 e2 46 bc 09 5e db bc
       -0.13997805 -0.0037149608 -0.0121388445 -0.026778238
0003f0 fe 7b 0c be 29 05 27 3e ad 37 1a 3e c1 57 cb 3d
       -0.13719174 0.16310562 0.15060301 0.09928847

conv1.bias f4 [64]
000000 c2 67 d8 3c 00 f6 89 3c 8b 89 fc 3c 03 ea 26 bc
       0.026416663 0.016840935 0.030827304 -0.010187629
000010 f7 89 ed bc 7d 78 52 bc 05 ab 5d 3c 40 fd 9c 3c
       -0.02899645 -0.012846109 0.013529544 0.019163728
000020 fd 28 1b 3d a0 57 a8 3d e9 23 95 3c 92 44 01 3e
       0.037880886 0.08219838 0.0182056 0.12623814
000030 6c 46 63 3c a3 0e b8 bb c4 e7 50 bc 23 7f 90 3c
       0.01387177 -0.005616979 -0.01275057 0.017638749
000040 e8 f8 3c 3d ce 3a 58 bc 94 a0 0f 3d 2f ef 71 3c
       0.046135813 -0.013197614 0.03506525 0.0147664985
000050 b1 9e 7c 3c 99 18 88 3c 21 7f 49 3c 66 52 4a 3c
       0.015418694 0.016613292 0.012298376 0.012348747
000060 82 cd ad 3c 4c d6 b0 3d 64 8d c7 3b 91 90 c1 3c
       0.021216158 0.08634624 0.006089853 0.023628505
000070 9d e2 78 3c c5 48 4e 3c 83 e6 87 3c 8c 3f b5 3c
       0.015190748 0.012590592 0.016589409 0.022125028
000080 ce ca 9e 3c 23 ca 27 bc 61 2c 87 3b 4a 52 18 bd
       0.019383814 -0.010241064 0.0041251634 -0.037187852
000090 fe 45 36 bc 89 47 6e 3d 78 68 76 3c 8e ac db 3c
       -0.011125086 0.05817369 0.015039556 0.026815679
0000a0 17 35 2e bb 88 df 89 3c 5b 49 dd 3c d1 f5 ce 3c
       -0.0026581937 0.01683022 0.027012518 0.025263699
0000b0 a9 25 12 bd 95 3c 54 3b 26 9d 1c 3d 62 b2 0c bc
       -0.035680447 0.0032384743 0.038235806 -0.008587452
0000c0 42 5e ef 3c 3f 75 95 3c 64 d9 23 3c 4e d4 be 3b
       0.02921975 0.018244384 0.01000056 0.0058236485
0000d0 b5 07 c6 3c 44 df 4d 3d f8 f3 8f 3d 8f 5b e3 3d
       0.024173597 0.05026175 0.07028955 0.11101448
0000e0 c4 a6 c8 3b f9 0a 97 3c b0 4f a4 bc 7f a6 d2 3c
       0.0061233956 0.01843785 -0.02005753 0.025714157
0000f0 3c 5c 44 3d f4 79 8c bc a5 64 82 3c 57 f8 86 3c
       0.047939524 -0.017147996 0.015917132 0.01647584

conv2.weight f4 [32, 64, 3]
000000 95 08 4a 3d 24 12 a0 ba 9b cb d1 bc 41 ff ba 3d
       0.04932459 -0.0012212438 -0.025609782 0.09130717
000010 2e de 48 3d 71 20 e2 bc 57 74 86 3d d6 60 9b ba
       0.049040012 -0.02760336 0.06565159 -0.0011854421
000020 7a cd ff 3b 57 3f 3c 3d fb 75 9f 3c c7 f0 27 3d
       0.007806477 0.045958843 0.019465437 0.041001108
000030 c9 75 40 3d 85 37 a6 3d 0e 62 47 3d 05 81 a6 3c
       0.04698733 0.08116058 0.048677497 0.020325193
000040 d4 66 9b 3d c0 3b 58 3d cc 82 0b bd c3 1d 23 3d
       0.07587972 0.052791357 -0.034060284 0.039823305
000050 c9 e2 54 3d a3 2d 43 3d 0c f7 24 3d f4 cb a4 bb
       0.05197409 0.047650944 0.040274665 -0.005029196
000060 76 df 0a 3d 7c dc a2 3d 6c 1a 93 bc c0 05 2b 3d
       0.033904515 0.0795221 -0.017956935 0.04175353
000070 73 ea 6b bd 15 8a 6d bd 22 c1 1f bd d4 f3 ca 3c
       -0.057596635 -0.057993013 -0.039002545 0.02477447
000080 dc a7 04 bb 34 08 f6 bc a8 bf 9d bd 8f 6b 9c bd
       -0.0020241654 -0.030033208 -0.07702571 -0.07637703
000090 f8 8b 80 3d 21 47 66 3c 7f 01 87 3d dc fc e3 bc
       0.06276697 0.014055044 0.06592082 -0.027830534
0000a0 00 07 29 bd 7c 0c 33 3d 90 ee f1 3c 1d 23 1d 3d
       -0.04126644 0.043713078 0.0295327 0.038363565
0000b0 9a 84 ba bc 70 c1 99 bc 8f 12 94 3d 37 a6 03 3d
       -0.022768307 -0.018768996 0.07230102 0.032140937
0000c0 18 56 5e 3d 2d 71 3b bb 53 f6 29 bd 6c 48 9a 3d
       0.054281324 -0.0028601394 -0.04149468 0.075333446
0000d0 17 92 48 bd 1c 98 1d bd 2b d5 6a 3d 7a 8a b3 3c
       -0.048967447 -0.03847514 0.0573322 0.021916617
0000e0 75 01 2e 39 86 1f 34 bd d2 9c 1b 3d d2 a2 95 bb
       0.00016594476 -0.043975376 0.037991352 -0.004566529
0000f0 99 39 23 3d f4 6a 80 3d df d5 d8 3c 0f 65 76 3d
       0.03984985 0.062704 0.02646917 0.06015497
000100 d4 62 0b bd 78 64 66 3d 61 e4 81 bd 0b 36 9c 3a
       -0.034029797 0.05624816 -0.06342388 0.0011917962
000110 88 e0 4b 3c 56 6b a2 3d 73 70 ae 3d 26 f2 b6 3c
       0.012443669 0.07930629 0.08517542 0.022332262
000120 00 bb ed 3c 54 af 18 bc e1 45 db 3c 35 ba 42 3d
       0.029019833 -0.009319145 0.02676672 0.047540862
000130 85 e2 97 3d 65 ef 93 3d 4f 00 88 bd 0f 68 89 bd
       0.07416252 0.07223395 -0.06640684 -0.06709301
000140 5f 32 89 bb c0 70 e6 3c de 01 09 3c 9b d3 01 bc
       -0.004186913 0.028129935 0.008362262 -0.007923986
000150 c1 42 34 3d e2 09 02 3c 33 d9 04 bd 11 42 9c 3d
       0.044008974 0.007936927 -0.0324337 0.07629789
000160 93 61 1f 3d a3 ea 94 3c ec 5c 2d 3d 19 49 67 3d
       0.038911413 0.01817829 0.042324945 0.056466196
000170 09 3c cd 3c 10 b3 7e 3d b5 80 1d bd 10 20 52 3d
       0.025053041 0.062182486 -0.038452823 0.05130011
000180 19 1e da 3d 35 9f 08 3d 2f 53 70 3d 96 6a 83 3d
       0.10650272 0.033354957 0.05867308 0.06416814
000190 93 dd 84 3d 8c 3f ad 3c 23 a9 4c 3d 4b cc fe 3a
       0.064875744 0.021148466 0.04996599 0.0019439546
0001a0 e4 e0 b9 3d 8e 17 77 bd 2a 79 92 3d 6c c6 93 3d
       0.090760976 -0.060325198 0.071520165 0.0721558
0001b0 b6 f3 fb 3c 2a f2 ab 3b b6 f8 29 bd 2c 8e 94 bb
       0.030755859 0.005247374 -0.041496955 -0.00453355
0001c0 cc 69 13 3e 0b 5e 0e 3d 28 e3 62 bd a2 b7 9e 3d
       0.14395827 0.034757655 -0.055392414 0.07749869
0001d0 a2 d5 09 3d 96 e5 da 3c 1e 8b 59 bc 2a 61 ba 3c
       0.033651 0.026720803 -0.013277797 0.02275141
0001e0 64 13 62 bd af ca 85 3c 8a f9 82 3d 31 28 cc b9
       -0.055194274 0.016331999 0.06395252 -0.00038939857
0001f0 a0 37 c5 bc 9c 3d 22 3b a1 42 6e bc b9 7d 44 3d
       -0.024074376 0.002475596 -0.014542253 0.04797146
000200 3b 60 37 bd 12 88 a8 3d b2 aa 8d 3d d1 7e 51 3d
       -0.044769507 0.08229078 0.06917323 0.051146332
000210 0c 6b 7e bc 1e f6 46 3d 3c a3 bc 3d 94 9e a1 bd
       -0.015528452 0.04857456 0.09210822 -0.078915745
000220 fe 80 0e bd a0 62 43 3d 37 15 68 3d b4 8a aa 3c
       -0.034790985 0.047701478 0.056660857 0.020818092
000230 16 24 ff bc be 79 74 bc 1d 4e c3 3d c9 9a 12 3d
       -0.031145137 -0.014921604 0.09536383 0.035792146
000240 c9 3d 58 bd 47 43 1b 3d 9c c1 26 3d 08 18 80 3d
       -0.052793298 0.037905958 0.040711984 0.062545836
000250 3f 2b 3e bc 77 ec 2d 3b c7 f3 02 bd 5a d8 98 3d
       -0.01160699 0.002653865 -0.031970765 0.07463141
000260 3c 24 30 3d dd 49 a3 3d e4 3b 0f bd cf 0c 96 bc
       0.043003306 0.07973073 -0.034969226 -0.018316654
000270 55 b8 30 3d 4f a8 39 bc c0 56 93 bc 3b e4 3c bb
       0.043144543 -0.011331632 -0.017985702 -0.002882256
000280 ba 60 44 3d 94 77 ea bc 3a 3b b0 3d 22 7e 22 bc
       0.04794381 -0.028621472 0.086050466 -0.009917768
000290 9a b8 b2 3d d6 38 8b bd fb ac 90 bd d2 f6 26 bd
       0.08726616 -0.0679795 -0.070642434 -0.04076273
0002a0 11 67 88 bd 9f a2 3d bd 68 63 14 3d 7e 7d b5 bc
       -0.06660283 -0.046297666 0.036227614 -0.022154566
0002b0 f1 10 9f 3d 01 68 8f 3d ee c7 e3 3b 30 58 77 3c
       0.07766903 0.07002259 0.0069513237 0.015096709
0002c0 6c 05 71 3d 36 26 9e 3d 2e f1 5d 3d 31 3e 87 3d
       0.05884306 0.07722132 0.054185085 0.06603659
0002d0 52 a6 93 bc 47 d6 c4 bc 1a 1c 3c 3b e4 5b 24 bd
       -0.018023644 -0.024027957 0.0028703273 -0.040126696
0002e0 6f 0c 0e bd a6 1d 6f bd 85 fd 25 bd ee 2c 05 bd
       -0.034679826 -0.058377884 -0.04052498 -0.03251355
0002f0 fd b7 ce 3b 4c 8f a2 3d 7b 14 21 bc 5d 7d 01 bb
       0.006308554 0.07937488 -0.009831543 -0.001975856
000300 97 d6 ab 3c 1d d2 08 bd 8f ef 31 3d 45 ce 60 3d
       0.020976348 -0.033403505 0.04344135 0.054884214
000310 fc 33 06 3c c1 99 40 3d 9b e3 79 3d 66 46 54 3d
       0.008191105 0.04702163 0.061008077 0.05182495
000320 ca 09 b4 3d 66 ae 4b 3d ac 21 c7 3c 0f 93 7e 3d
       0.087909296 0.049726866 0.024308048 0.062151965
000330 95 00 c7 3c 92 24 a2 3d 1b 10 cf 3d 11 8e 7b 3d
       0.02429227 0.079171315 0.10110494 0.061414782
000340 c7 ee c3 3d e6 c2 6e 3d 1f ef ce 3d a2 84 ed 3c
       0.095670275 0.05829134 0.101042025 0.028993908
000350 d2 f8 02 bd 97 a9 85 bd 51 a6 36 3d 22 cb 2b 3b
       -0.031975575 -0.06526487 0.044592205 0.0026213606
000360 ba 6d 86 bd 91 77 f5 3c 14 79 9c bc a7 d9 6d bb
       -0.065638974 0.02996424 -0.019100703 -0.003629306
000370 a3 61 40 3d f6 4a 8d bd 7a 19 e7 bc 62 c1 4f 3d
       0.046968114 -0.06899063 -0.02821039 0.050721534
000380 02 4d 38 3d 91 b9 64 3d 41 8d d8 bb 84 e5 b7 bd
       0.044995315 0.055841032 -0.0066086357 -0.089793235
000390 ea 72 00 bc ea 66 4f 3c 10 81 86 bd 8b ff 22 3c
       -0.007839898 0.012658814 -0.065675855 0.0099486215
0003a0 0b a0 e3 bc d9 ac 52 bd f1 ca b4 bc 8c 1d 93 3d
       -0.027786275 -0.05143437 -0.022069426 0.0718337
0003b0 7a f1 c5 b9 92 df c4 bd 3a 94 ca 3c 72 21 9b bd
       -0.00037754682 -0.09612955 0.024728883 -0.075747386
0003c0 74 ff a1 3c 03 40 76 bd c0 d0 bd 3c df 26 e9 bc
       0.01977513 -0.06011964 0.023170829 -0.028460918
0003d0 12 da 13 bd b1 88 84 3d 19 46 b0 3c 35 b2 4a 3d
       -0.03609664 0.06471384 0.0215178 0.049486358
0003e0 78 dd 8b bc 67 42 65 bc 60 df 99 3d d0 80 b8 b9
       -0.017073378 -0.013992882 0.075133085 -0.00035191188
0003f0 73 d7 64 bc 54 f6 8f bd 07 cf 8f 3d 32 f3 96 3d
       -0.013967383 -0.07029405 0.07021909 0.073706046

conv2.bias f4 [32]
000000 4f 77 0f 3c 61 6c e3 3b 8b 72 51 bc b5 aa dc 3c
       0.008756473 0.00694041 -0.012783657 0.026936868
000010 b0 ae 09 3c 97 9f a0 bb 59 ca 5c 3c 7c db ac 3c
       0.008403465 -0.004901837 0.013475978 0.021100752
000020 10 42 31 3c 52 01 1f 3d ec 76 ab bb 2f ca bd bb
       0.010818973 0.03881962 -0.0052326825 -0.0057919244
000030 63 c0 7a 3c f5 ce 64 bb c6 6e 35 3b 15 c8 93 3c
       0.015304658 -0.0034913395 0.0027684434 0.018039742
000040 5f 81 ff bb 6a 8e a2 3d dc 9a c8 3c fb 68 6a 3d
       -0.0077974047 0.079373196 0.024487905 0.057229023
000050 a2 26 69 3d da 36 dc 3c b2 4a 40 3b c0 83 62 3c
       0.05692161 0.026881624 0.0029341397 0.013825357
000060 91 e0 af bb a9 15 13 bc e0 6b 39 3c 75 9a 06 3d
       -0.0053673466 -0.008977332 0.011317223 0.032862145
000070 62 4a b0 3c 07 f6 26 3c 7d 89 31 3a 7f 00 9b 3c
       0.021519843 0.010190493 0.00067725015 0.018921135

lstm.weight_ih_l0 f4 [256, 32]
000000 ab 90 eb 3b 62 f9 d4 3d 21 9e a0 3d ee 7b 2a bd
       0.0071888766 0.103991285 0.07842661 -0.041622095
000010 e9 f4 6d bd 85 02 c1 bd b6 cf 04 be 1d f4 10 bd
       -0.058094893 -0.09424309 -0.1296986 -0.035389055
000020 6f f3 a8 bd a6 44 96 3d 68 e0 a7 3c 7e d6 cb bd
       -0.08249556 0.073373124 0.020492747 -0.099530205
000030 c7 44 d9 bd c9 fd 34 bd 5b 9e a9 bd 6a d3 5a 3d
       -0.10608821 -0.04418734 -0.08282157 0.053424276
000040 cf f8 ce bc 8d 8d 7b 3b e1 05 31 bd 03 d6 d4 bc
       -0.025265126 0.0038383931 -0.043218497 -0.025980955
000050 3d d9 60 bd 8f 4c 06 be ad 00 e3 bb 85 73 fa bd
       -0.054894675 -0.13115142 -0.006927571 -0.12229065
000060 7d 9c f9 bd 5d 5b b3 bc 00 a8 ea bb 60 e8 f0 3c
       -0.12188051 -0.021894151 -0.0071611404 0.02940768
000070 1a 5a a3 3d a4 d3 ac 39 fd c2 01 3d d3 17 d5 bd
       0.0797617 0.0003296408 0.031680096 -0.10404935
000080 37 bd 00 3d e9 96 c8 3d 82 f1 ff bd b1 4d 11 bc
       0.03143045 0.09794409 -0.12497236 -0.008868621
000090 18 8f d9 3d 32 0e 0e 3d f6 8c b3 3d de 9c ee bd
       0.10622996 0.034681506 0.087671205 -0.11651014
0000a0 86 d2 e3 3d a1 de 1c bd 9d 33 d1 bd 87 00 bc 3c
       0.111241385 -0.038298253 -0.102149226 0.02294947
0000b0 38 c5 f5 3d 4e b5 c8 3c 00 10 94 bd 7c 5c ce bd
       0.12000507 0.024500515 -0.07229614 -0.10076234
0000c0 1b 0c d7 bd 9f 1c 31 bc b1 06 af 3d 4e 89 03 be
       -0.10500356 -0.010810046 0.08546198 -0.12845346
0000d0 7c d6 b5 bd e4 c9 fc 3d 55 68 db 3d 83 bd ae bd
       -0.088788 0.12343195 0.10713259 -0.0853224
0000e0 07 d1 3c 3d de 44 ea bd 97 a5 7a 3d b7 42 dd bd
       0.04609778 -0.114389166 0.061193075 -0.108037405
0000f0 f2 d9 f6 3d 89 e8 d9 3d 71 16 88 bd dd 3a 99 3d
       0.120532885 0.10640056 -0.06644905 0.074819304
000100 24 e1 d3 3d 2b d5 d6 3d c2 b0 37 bd d6 88 b9 3d
       0.103456765 0.10489877 -0.044846304 0.090593025
000110 c5 67 90 bd 20 12 1a be 34 80 db bd 4d aa 9f bd
       -0.070510425 -0.15045977 -0.10717812 -0.07796154
000120 0d c4 6a 3c 2d d4 23 3d 47 62 c6 3d 2c 53 d5 bd
       0.014328969 0.03999727 0.09686714 -0.104162544
000130 af 9d 10 bd d8 92 cf bd e0 e0 72 bd b4 dd ee 3d
       -0.03530663 -0.1013543 -0.05929649 0.1166338
000140 a6 f5 49 3d 94 a4 1c 3d 02 70 11 3d 79 70 e8 bd
       0.049306534 0.03824289 0.03550721 -0.113495775
000150 52 a8 ec bd ae 65 2d 3d aa 69 da 3c df 8c bb bd
       -0.11555542 0.042333297 0.026661713 -0.091577284
000160 a0 06 09 bd 93 29 32 3d f9 4d f6 bd a9 e5 2f bd
       -0.033453584 0.04349668 -0.12026591 -0.04294363
000170 f3 cd b0 3b 71 37 8c 3d c6 50 e9 3d 4e 43 bc bd
       0.005395645 0.06846512 0.113923594 -0.09192525
000180 80 01 8b 3d 93 1d 56 3d 5a d0 9f 3d 07 ba 79 3d
       0.067873955 0.052274298 0.07803412 0.060968425
000190 80 ac 1e bb 23 e5 99 3d 69 f1 63 3d 7f b8 bc bd
       -0.0024211705 0.075144075 0.05565015 -0.09214877
0001a0 f2 2c 83 bd cb 7e e7 bd 8c 8e b8 3d 6d f4 d8 3b
       -0.06405057 -0.11303481 0.09011564 0.0066209347
0001b0 02 11 7e bd 2b 0e c4 bb ae 5b 8f 3d 63 21 1f bd
       -0.06202794 -0.0059831343 0.069999084 -0.0388502
0001c0 74 95 37 3d 93 35 b5 bc 6a e4 3f 3c 08 ef 9e ba
       0.044820264 -0.022120273 0.011712173 -0.001212568
0001d0 6c 76 c4 3d 59 ee d8 bd f1 9b 84 3d e6 40 ab 3d
       0.095929 -0.10592336 0.06475056 0.08361988
0001e0 04 b4 26 3c c1 97 6f 3d f5 87 f3 3d 23 d1 35 3d
       0.010174755 0.058494333 0.11891166 0.0443889
0001f0 dd f8 33 bc b7 22 10 39 34 bf 05 3c c2 85 ac 3d
       -0.010984627 0.00013745842 0.008163262 0.0842395
000200 bc 45 11 bd 00 34 3c bd f3 e4 f1 3c 2f a2 8d bd
       -0.035466895 -0.04594803 0.029528117 -0.069157
000210 df d3 b3 bd 3c 11 8a 3d 5d be 0c 3d 6e 29 d4 bc
       -0.087806456 0.067415684 0.034361232 -0.025898661
000220 c5 8f 6a bd 9f 91 e8 3d 39 56 37 38 31 a2 0c 3d
       -0.057266016 0.113559 4.37109e-05 0.034334365
000230 b5 99 56 bd dc ec ea bd 44 ae 05 3d 3f ad f7 bd
       -0.05239268 -0.114709586 0.032636896 -0.12093591
000240 3a 15 d0 bd 56 0f a6 bd 28 3f f7 bd c2 c3 d5 3d
       -0.10160299 -0.08108394 -0.12072593 0.104377285
000250 b5 c5 b2 3d 13 76 b4 bd 90 55 cb bd f9 f9 d8 bd
       0.08729116 -0.08811583 -0.09928429 -0.105945535
000260 0a 7d 24 bc 98 a2 0f 3c 65 06 ec bd 8e 60 b5 bd
       -0.010039577 0.008766793 -0.11524657 -0.08856307
000270 2c 09 b6 3d 7f 1e 21 bd 78 a6 a7 3b 5d 26 d2 bd
       0.08888468 -0.039335724 0.00511628 -0.102612235
000280 22 16 cb 3d 4e 95 0c bc f0 a2 73 3d e9 b8 ab bc
       0.09916331 -0.008580519 0.05948156 -0.020962195
000290 37 8f 1d 3d d0 4b 1c 3e 7a 40 86 3d 7d 8b b1 3d
       0.03846666 0.15263295 0.06555267 0.086691834
0002a0 d8 46 f2 3d 65 e1 ec 3d 2c 4b 64 bd 44 28 e4 3d
       0.118299186 0.11566428 -0.055735752 0.111404926
0002b0 01 d5 03 3d ba 61 97 3d 18 90 ca bd 1f 35 df 3d
       0.03218556 0.07391687 -0.09890765 0.10898804
0002c0 45 db 77 bc 38 5e d7 bd 3f 83 50 bc 78 1d b7 bd
       -0.0151279615 -0.10516018 -0.012726604 -0.089411676
0002d0 c6 5b 87 bd c6 d5 08 3d 7a 80 a9 bb 86 8b 51 3d
       -0.06609301 0.033406995 -0.0051727863 0.05115845
0002e0 44 02 c9 bd 5e e5 c1 bd ab 7b 91 3d a4 10 ba bc
       -0.09814885 -0.094675764 0.07103666 -0.022713013
0002f0 5b 41 81 bd 0f 09 7e bd 49 f6 c1 3d ee 64 36 3c
       -0.06311294 -0.062020358 0.09470803 0.011132462
000300 a8 3f bd 3d 7b e5 73 bd 4d 31 f7 bd a6 d6 92 3d
       0.09240657 -0.05954502 -0.1206995 0.07169847
000310 29 54 3f bd 6b 33 a3 3d ce b3 e5 3c 7f 1f 4b 3c
       -0.04671112 0.079687916 0.02803984 0.012397646
000320 ef 45 86 3d f4 6f 6c 3d 78 d8 c0 3c c5 e6 d1 bc
       0.065563075 0.057723954 0.02354072 -0.025622735
000330 26 67 b3 bc 40 87 a0 bd 48 28 b2 3d fc e7 41 bd
       -0.021899771 -0.07838297 0.08699089 -0.04734038
000340 05 5c 82 3d 8c b9 54 bd f4 24 b8 3d 03 df 26 3d
       0.063652076 -0.051934764 0.08991423 0.040740024
000350 5c 49 bd 3d 2b bf 8b 3d 1f 13 46 bd 36 90 df 3d
       0.09242508 0.06823572 -0.04835808 0.10916178
000360 db a6 b3 bc 79 66 c7 bb 48 f6 48 bc 87 23 82 bd
       -0.021930149 -0.0060852137 -0.012265749 -0.063544326
000370 b3 f0 37 3d 67 22 e9 bd bf 6b be bd 7b e6 e6 3d
       0.044907283 -0.11383515 -0.09297895 0.112744294
000380 90 d2 a4 3d 97 76 80 3d 79 2a 1d 3d f3 e6 e3 3d
       0.08047974 0.06272619 0.038370583 0.111280344
000390 33 0c 5c 3d bc 7f 03 bd 6d 41 af bd e4 b8 a9 bd
       0.05372257 -0.03210424 -0.08557401 -0.08287218
0003a0 50 46 d8 3c 6d c9 d7 3c 83 ac 90 bc 12 74 cd bd
       0.026400715 0.026341164 -0.017660385 -0.10031904
0003b0 36 2d f0 3c 9f 77 88 3c 99 df b8 bd a6 2f 6f 3d
       0.029318433 0.016658602 -0.09027023 0.05839505
0003c0 5e 88 88 bc 02 e1 c5 bd 7c 0c b0 3d 7f e6 c1 bd
       -0.016666587 -0.096620575 0.08596131 -0.09467792
0003d0 24 5b f8 3d b6 45 c0 3d 7b 4f 9e 3d ce af a6 3d
       0.12126759 0.09388296 0.077300034 0.08139001
0003e0 ae b0 61 3d a6 05 c4 3c a7 0b 99 3d 1f 24 89 3d
       0.055100136 0.023928475 0.07472926 0.06696343
0003f0 11 50 b5 bd 27 b8 b3 bd 2d 20 96 bd 18 c5 73 bd
       -0.08853162 -0.08775359 -0.07330356 -0.059514135

lstm.weight_hh_l0 f4 [256, 64]
000000 0c 10 24 3c 13 66 03 3e 6f 1c b3 bc 53 86 a2 bd
       0.0100135915 0.12831907 -0.021864144 -0.079357766
000010 37 d2 80 3d ef 78 3c 3d e3 2f 82 bd e3 4f b0 bb
       0.06290095 0.04601377 -0.0635679 -0.005380617
000020 ad 9c f9 bc 9d a2 a2 3d e1 2d 03 bd b6 29 0d 3b
       -0.030470217 0.07941172 -0.032026175 0.0021539754
000030 06 70 37 bd a7 f0 c9 bd 54 1a 57 bb 1e 6a e8 3b
       -0.04478457 -0.09860354 -0.003282209 0.0070927283
000040 73 b7 c8 bc 6c 54 02 bc 7a 37 ce 3d 55 df a8 3b
       -0.024501538 -0.007954698 0.10069175 0.0051535764
000050 a0 bc d0 3d 8a d4 be 3d ab f1 50 3d ef bc dc bd
       0.10192227 0.09317882 0.051011723 -0.10778224
000060 62 89 b6 3d 7b 92 68 3d 27 99 1d 3d 61 37 97 3d
       0.089129224 0.05678032 0.038476136 0.073836096
000070 05 47 e9 bd a6 55 82 bd 87 77 15 3d 79 8f d7 bd
       -0.11390499 -0.063639924 0.036490943 -0.10525412
000080 32 81 48 bd b3 65 ad bd 2f 35 26 bd 89 7e 09 3d
       -0.048951335 -0.08466663 -0.040578064 0.03356794
000090 8a 39 ec 3c ba 67 04 3e 1f 93 8f 3d ad 6f 86 3d
       0.02883603 0.12930194 0.07010483 0.06564269
0000a0 3d b9 c5 bd 1c eb 61 bd 0f 3b cf bd d4 ea a1 3d
       -0.09654472 -0.05515586 -0.101186864 0.07906118
0000b0 f5 72 e3 bd 35 99 b6 3d 62 88 38 bc b0 9f 8c 3c
       -0.11105911 0.08915941 -0.011262985 0.017165989
0000c0 47 9b a2 bd a2 47 12 bd 8f 64 f0 bd e0 53 d1 bc
       -0.07939773 -0.035712846 -0.1173793 -0.02555269
0000d0 d8 d6 4f 3d b0 5f 1d bc dd 1a 1b 3d 89 ed c3 3d
       0.050742 -0.009605333 0.037867416 0.095667906
0000e0 18 c2 88 3d 19 ba a9 3c 99 a7 be bd 15 65 ce 3d
       0.066776454 0.020718621 -0.093093105 0.100778736
0000f0 ed 77 40 bd f7 eb a5 bd c8 b0 ce 3d 7f 58 b5 3d
       -0.04698937 -0.08101647 0.10092312 0.0885477
000100 23 80 65 3d fb 72 db bd 96 d5 c6 3d 41 cd b4 3d
       0.056030404 -0.1071529 0.09708707 0.088282116
000110 52 da 84 bd 75 31 87 bd 7b be ed 3c b6 0e d0 bd
       -0.06486954 -0.0660123 0.029021492 -0.10159056
000120 85 4e 6e 3d df 34 dd bd 7c 4d 1c bd bc 06 cf 3b
       0.05818035 -0.108011 -0.038159832 0.0063179415
000130 89 7e 8f 3d 65 fa bf 3d 82 57 b8 3d f5 b3 02 3e
       0.070065565 0.09373931 0.09001066 0.1276396
000140 f8 18 c9 3d ef df 9c 3d c2 ea ca bd 15 07 f4 3d
       0.098192155 0.076598994 -0.09908058 0.11915413
000150 bf 16 e1 bd 6c e9 da bd f5 da 44 3d d2 8e d0 3b
       -0.109906666 -0.10689053 0.048060376 0.0063646818
000160 3e f4 4f 3d 8d 39 d0 3c c6 ce 78 bd 36 26 18 3d
       0.050770037 0.025418067 -0.06074407 0.037145816
000170 e6 19 9e 3c d0 95 b9 bc 7b a0 9c bd 44 ef e2 3d
       0.019299459 -0.022654444 -0.07647797 0.110807925
000180 04 af e1 3d ff c7 1e bc 3a f0 8a 3d 44 04 3d 3d
       0.1101971 -0.0096912375 0.06784101 0.046146646
000190 c0 ba d2 bd 71 5b 15 bd 29 b9 c4 3d 70 e2 23 bd
       -0.10289526 -0.03646416 0.09605629 -0.04001087
0001a0 df 08 ca bd 51 e7 93 bd e6 35 b3 bc c9 5b c3 3d
       -0.09864973 -0.072218545 -0.021876287 0.09538991
0001b0 37 dd 8d 3d 81 e8 36 bd 5d dd b1 3d 4f 43 95 3d
       0.06926959 -0.044655327 0.086848 0.07288229
0001c0 a5 70 95 bd 87 a9 f1 bd d3 c3 61 bd 2f bf db bd
       -0.07296876 -0.11799913 -0.055118393 -0.10729825
0001d0 7e aa ab 3d cc 22 27 3d db dc 9d bd b6 41 54 bd
       0.08382128 0.04080467 -0.077081405 -0.05182048
0001e0 e9 5c 41 3b ae 1f 8c bd c7 8b 80 bc 2c d2 cf 3c
       0.0029504842 -0.0684198 -0.015691651 0.025368772
0001f0 2e 6c af ba 76 c4 7c bd ed 79 8b bb 61 20 11 bb
       -0.001338368 -0.061710797 -0.004256478 -0.0022144543
000200 60 3c 90 bd 1d 0c a9 bd 59 c5 13 3d 75 1c 92 bd
       -0.070427656 -0.082542636 0.036076877 -0.07134334
000210 4e d0 ce bd 21 f2 3e bd 67 f4 b4 3d f0 cb 0c bd
       -0.10098325 -0.04661763 0.088356785 -0.034374177
000220 92 22 ff 3c 6e e4 6b bc 64 06 df 3d 19 06 6c 3c
       0.031144414 -0.014397724 0.10889891 0.014405751
000230 e9 e5 ab 3c c5 28 e7 3d 12 14 e9 3d 14 c7 52 3d
       0.020983653 0.11287073 0.11380781 0.051459387
000240 3f 93 34 3d 31 9c 03 be 1d ef 8b 3d b8 28 a7 3d
       0.044085737 -0.12852551 0.068327166 0.08162063
000250 dd 0a ac bd 5f 7a 29 3d 86 f1 d6 3d 57 9c 05 3d
       -0.084005095 0.041376468 0.10495286 0.0326198
000260 4d ca a6 bd 3f ae 88 bc 87 40 fe bd d6 44 f3 bd
       -0.081440546 -0.01668465 -0.12414651 -0.11878364
000270 68 9b 88 3c ca c1 f2 3d 67 8a fe bd 67 aa b1 bd
       0.016675666 0.118533686 -0.12428742 -0.0867508
000280 28 c6 42 3d e0 62 5f 3d c1 af e4 3c 37 91 9b 3c
       0.047552258 0.054537654 0.027915837 0.018990142
000290 a4 d5 d3 3d b9 ae ed bc e2 3c 56 3c 7a 17 e4 bd
       0.10343483 -0.029013978 0.013076039 -0.1113729
0002a0 e7 33 d9 3d 87 cd ed 3d 05 ca 90 3d 9c a2 af 3d
       0.10605603 0.11611467 0.07069782 0.08575937
0002b0 a4 1e 80 3d cb be 73 bd b3 eb ce bd 69 42 6f 3d
       0.06255844 -0.059508126 -0.1010355 0.058412943
0002c0 bb ae 7c bd 42 8c 16 bd 12 e9 8c bd d2 67 c1 3d
       -0.061690073 -0.036754854 -0.06880392 0.0944363
0002d0 41 3f 58 bd e1 bd d8 bd f6 45 c8 3d 17 7c 33 bd
       -0.0527947 -0.105830915 0.09778969 -0.043819513
0002e0 b0 87 de bd 55 e2 73 3d db 09 d7 3c ad 7f 88 bd
       -0.10865724 0.05954202 0.026249817 -0.06664977
0002f0 d7 ba b3 3c bb a9 a0 3d 0e 6f c3 3d 84 83 65 3d
       0.021939678 0.078448735 0.095426664 0.056033626
000300 6a e1 0c 3d 83 00 ab bd 57 24 f6 bd 14 8b c3 bd
       0.03439466 -0.08349707 -0.1201865 -0.095480114
000310 94 af 9e 3d a8 f4 e5 bc 2f b4 cd 3d 55 0e 38 bd
       0.077483326 -0.028070763 0.10044133 -0.044935543
000320 eb 8e 21 bc d9 bf 2d bd c2 02 c1 3b 1b 6a d9 3d
       -0.009860734 -0.04241929 0.0058902213 0.10615941
000330 b5 46 9d bc 3f 83 fd 3d 85 f9 8d 3d a6 81 9b bd
       -0.019198755 0.12378549 0.06932358 -0.07593088
000340 51 a1 7b bc a3 a1 7f 3c 61 93 9a bc 58 ce 3c 3c
       -0.015358285 0.015602502 -0.018869104 0.011523806
000350 35 0c 2f bd 8c 43 c8 3d 7c 12 f4 bd 16 af 43 3c
       -0.04273625 0.097785085 -0.11917588 0.011943599
000360 01 6a ed 3d ab c5 66 bc 0f fd ab 3c e0 ce 53 3c
       0.11592484 -0.014085214 0.020994691 0.012927741
000370 7b f7 c9 bd 99 82 bf bd 49 f4 d9 bd bf b1 8a bc
       -0.09861656 -0.093510814 -0.10642297 -0.016930459
000380 ea cd 7b bd 49 64 a1 bd 35 c7 9d bc b5 fd dc bd
       -0.06147567 -0.07880456 -0.019260028 -0.10790578
000390 59 77 85 bc 12 1d fc bd 80 58 cb 3d 57 8e 02 be
       -0.016292261 -0.12310232 0.099289894 -0.12749611
0003a0 25 a9 89 bd 24 d6 2f bd 33 93 fb bd fb f7 8f bd
       -0.06721715 -0.04292883 -0.122839354 -0.070297204
0003b0 7b b8 b4 3d 49 d0 97 bd c2 c9 a1 bd 27 ba cd bc
       0.08824249 -0.07412774 -0.078998104 -0.025113178
0003c0 b6 63 e8 3d 19 73 5b 3b a7 2d c8 bd 02 73 7b bd
       0.11347143 0.0033485352 -0.097743325 -0.061388977
0003d0 6e f7 f7 3c 29 15 8b 3d 86 3c ea bd f9 c5 2c bc
       0.03026935 0.06791145 -0.11437325 -0.010545247
0003e0 53 bd 88 3d ad be dc bc 36 96 9e 3d 8b a7 48 bd
       0.06676736 -0.02694639 0.07743494 -0.048987906
0003f0 d9 b5 fa 3d 2f c0 67 3c 35 38 d3 3d db e4 59 3d
       0.12241716 0.014144941 0.10313455 0.05319677

lstm.bias_ih_l0 f4 [256]
000000 6d a7 44 3d 5e 7f ef 3d 26 d8 19 3d f3 4d d8 bc
       0.048011232 0.11694215 0.03755965 -0.026404357
000010 4d d4 7d 3d 3a d7 77 bd 01 a4 04 3e b7 4f 35 bd
       0.061970044 -0.06050799 0.12953188 -0.044265475
000020 ca 43 1e 3d 74 4b e6 bc 35 07 e6 bd 6f 52 48 3d
       0.038638867 -0.02811215 -0.112318434 0.04890674
000030 38 68 28 3d 95 8d 63 bc 00 66 fa bd e0 53 f6 3c
       0.041115016 -0.013888736 -0.12226486 0.030069292
000040 24 c8 ec 3d 0c 82 2a 3d 88 93 11 3d ec e3 e9 bd
       0.11561611 0.04162793 0.035541087 -0.11420426
000050 6d 39 fd 3d 36 d3 be 3b a2 a7 8d 3d eb 06 2e bd
       0.12364469 0.005823518 0.06916739 -0.042487066
000060 89 6d 87 bd 09 14 da 3c 04 74 fb b7 f0 16 00 3e
       -0.06612689 0.026620882 -2.9975556e-05 0.1250875
000070 b0 82 8a bd 65 9b e8 3c c6 8e a3 3d 5d e3 b8 bd
       -0.06763208 0.02839441 0.07986216 -0.09027741
000080 ea 8c 82 3d aa e6 a2 3d b9 86 ba bd 7d ad 69 bd
       0.063745335 0.07954152 -0.091077276 -0.057050217
000090 6b fd 16 bd 44 a7 90 bd 86 20 8e bd e3 ec 39 3d
       -0.036862772 -0.070631534 -0.06939797 0.04539193
0000a0 68 e6 d1 3d 70 7b c1 3d f0 5c 80 3d e3 5b e6 3d
       0.10249025 0.09447372 0.062677264 0.11247995
0000b0 71 b2 87 3d 07 db 42 3d f5 e5 79 3c 26 ce 89 bd
       0.06625832 0.047572162 0.01525258 -0.06728773
0000c0 93 c5 41 ba a2 8b 37 bc 88 c0 3e 3c c5 48 11 3d
       -0.00073918066 -0.011202725 0.011642583 0.03546979
0000d0 a2 95 6d bd e3 29 a2 3d b9 4e 8b 3d 5e 73 b1 3d
       -0.05800403 0.079181455 0.068021245 0.08664583
0000e0 a8 15 c5 3d d7 2c d9 bd 29 56 2c 3c b5 42 7e 3d
       0.09623271 -0.10604256 0.010518589 0.062075336
0000f0 6a f1 18 3d 9c ee 12 3c ff 07 f7 3d 68 c0 fd 3d
       0.037339605 0.008968022 0.12062072 0.12390214
000100 45 e5 b2 bc 26 c3 f9 3d 10 65 85 3d 9a b5 3c 3d
       -0.02183784 0.12195425 0.06513417 0.046071626
000110 5c 69 3d 3c fe 89 1b 3c 03 eb 8d 3d 29 d0 71 3d
       0.011560764 0.009493349 0.069295906 0.059036408
000120 de 0d b7 bd 48 e3 b9 3d 98 00 3e bd b3 c6 17 bd
       -0.08938192 0.090765536 -0.046387285 -0.03705473
000130 4c b4 8b bd 27 d7 db bd 44 e2 b4 bd f0 96 aa ba
       -0.06821498 -0.107343964 -0.08832219 -0.0013014954
000140 7a bf ae 3d bb 12 c8 bc ce d9 80 bd a0 93 6e 3c
       0.08532615 -0.024422994 -0.06291543 0.014561564
000150 88 cc 57 3e 8e 33 54 3d 47 2c fd 3c c5 f9 34 3d
       0.21074116 0.05180698 0.030904902 0.04418351
000160 37 34 92 bd 31 28 73 3d d0 6f 56 3d c4 52 b4 3d
       -0.071388654 0.0593645 0.052352726 0.08804849
000170 4d ba a6 bd 10 3c e7 bd 29 4e 52 3d af 30 c1 ba
       -0.08141003 -0.11290753 0.05134407 -0.001473924
000180 eb 19 4d bd 43 3a 8b 3d 21 10 c3 bd 5c 6f 5a bd
       -0.050073545 0.06798222 -0.09524561 -0.053328857
000190 34 1a 00 be 0f 22 45 bd 67 62 06 3e 1d d1 c0 bd
       -0.12509996 -0.048128184 0.13123475 -0.09414885
0001a0 e0 77 b9 bd 03 57 fc 3d e6 a2 52 bd 9e 5e 0d 3d
       -0.090560675 0.12321284 -0.051424883 0.034514062
0001b0 c8 b1 c6 3d 37 8a 3a bc df 58 ca 3c c0 fc 06 3d
       0.09701878 -0.011385492 0.02470058 0.032955885
0001c0 71 08 c6 bd fa d6 8f 3b 06 00 85 bd 84 b8 b5 3d
       -0.09669579 0.004389641 -0.06494145 0.08873084
0001d0 9c d4 8d bd 00 53 60 bd e4 8a ec 3d 19 ce f1 bc
       -0.06925318 -0.054766655 0.11549929 -0.02951722
0001e0 da 7b f6 bc d0 ef 3a 3d 00 fc d2 3d 03 4f e4 3d
       -0.030088354 0.04563886 0.103019714 0.11147883
0001f0 b3 a1 dc 3d 8d 84 4d bd 99 39 cc bd b3 8a e8 3d
       0.10773029 -0.05017524 -0.099719234 0.1135458
000200 da 8c 09 bd 8b e4 e4 bc a2 f6 bf 3d 56 d8 86 3d
       -0.033581592 -0.027941009 0.09373213 0.065842316
000210 d9 18 91 bd b5 f4 8b 3c b7 c3 fb 3c 8b db 00 3e
       -0.070848174 0.017084459 0.030732973 0.12583749
000220 6d 3f 57 bc 5c e0 ce 3d 0e b7 08 be 6a 71 d2 bd
       -0.0131376805 0.10101387 -0.1335108 -0.10275538
000230 40 43 b1 3c 84 11 ea 3d c6 07 dc bb 3c 74 0b 3e
       0.021638513 0.11429122 -0.006714794 0.13618559
000240 f2 ce 9d 3d d0 4e ac bc 64 eb b0 3d 48 48 28 bb
       0.07705487 -0.021033674 0.08638647 -0.0025677849
000250 89 c1 90 bd 61 7d 89 bd f6 47 07 3e 9a 56 01 3d
       -0.07068164 -0.06713367 0.13211045 0.03157673
000260 f1 5b ce bb a9 5f ec 3d df c4 ae bd 62 8f d9 3d
       -0.0062975814 0.11541683 -0.08533644 0.10623051
000270 b0 a8 90 bd cc ab 03 3e b0 16 86 bd a8 39 f2 3d
       -0.070634246 0.12858504 -0.06547296 0.11827403
000280 95 7f 86 3d 5b c0 e9 3d 08 a0 22 bd 64 e9 72 3d
       0.06567303 0.11413642 -0.0397034 0.05930461
000290 9a a1 eb bd e5 47 0d 3b 3f 8b b8 3d 33 02 73 bd
       -0.115054324 0.0021557745 0.09010934 -0.05932827
0002a0 e5 21 78 3c 2c 83 8a bd 79 73 05 bc e5 12 a0 bd
       0.0151448 -0.067633 -0.008145207 -0.07816104
0002b0 e8 ee fb 3c c1 eb 32 3d c9 c4 46 3d 0e 73 8c 3d
       0.030753568 0.043681864 0.048527513 0.068578824
0002c0 a2 42 05 3e 05 28 ca bc 7d 43 61 bd 7c 39 4d 3d
       0.130137 -0.024677286 -0.054996002 0.05010365
0002d0 ee f8 95 3c 46 94 e4 3d 40 50 26 bc 2c 31 bf 3d
       0.018307175 0.111610934 -0.010150969 0.09335551
0002e0 4c d6 87 bd 00 f6 98 3d 83 73 84 bc 9c 88 6c 3a
       -0.06632671 0.07468796 -0.016168362 0.0009023042
0002f0 29 27 07 3e 39 6f d1 bd 37 89 a3 3d 00 0e 8b bb
       0.13198532 -0.10226292 0.07985156 -0.0042436123
000300 4e d8 1c 3d c7 68 5d bd 57 b2 b8 bc c6 dc 6f bc
       0.03829222 -0.054055 -0.022545977 -0.014640039
000310 44 28 38 3d a9 7c 5c bd 72 f1 a7 3d ad 81 03 3e
       0.044960275 -0.053829823 0.08200349 0.12842436
000320 56 2d 0d 3c f2 53 ee 3d 23 f4 d5 bd e1 a3 d1 3d
       0.008616766 0.11637105 -0.10446956 0.102363355
000330 2a 92 4c bd 72 6e ea bd 0c f3 a4 3d cf c7 5b 3d
       -0.04994408 -0.11446847 0.0805417 0.05365735
000340 d9 40 9c 3c ca 41 0e bd 10 e4 9d 3d 70 9c 8e 3c
       0.01907389 -0.03473071 0.07709515 0.01740858
000350 c8 19 60 bd 66 44 c8 bd ee 76 80 3a b3 82 01 bd
       -0.054712087 -0.09778671 0.0009801069 -0.031618785
000360 ca 84 10 bd fe f2 f0 3c 27 0d 22 bd 1e 8f 01 bd
       -0.035282888 0.029412743 -0.039563324 -0.031630628
000370 9f 97 0e 3e 3a 07 bd 3b 3a 48 97 3d a7 82 79 bd
       0.13925026 0.0057686837 0.07386823 -0.060915615
000380 85 ae 6f bd 87 de cd 3c d6 9f e0 bd 2b 04 e0 bd
       -0.058516044 0.025130523 -0.10967986 -0.10938295
000390 cb f0 fe bd 89 f7 41 bd 0f 79 4c bc 9b 08 e1 bd
       -0.12448271 -0.04735521 -0.0124800345 -0.109879695
0003a0 0e a1 4e 3d a2 15 2f 3e b9 40 f2 3c 27 b0 ce 3c
       0.050446562 0.17098096 0.029571878 0.02523048
0003b0 22 45 82 bd 87 74 37 3d 69 f2 84 bd ff 4a 90 3d
       -0.06360842 0.044788864 -0.064915486 0.07045554
0003c0 a0 63 95 bd fc 52 1a bd 8b 4f f1 3d 39 2e f0 3d
       -0.072943926 -0.037676796 0.1178275 0.11727566
0003d0 87 31 df bd 4b bd e2 3c d4 fe 5a bd ff 75 02 3e
       -0.108981185 0.027678153 -0.05346568 0.12740324
0003e0 6f f1 67 3d c5 ac 33 3d d4 15 de 3c 74 10 ba bc
       0.056626733 0.043865938 0.027110018 -0.022712924
0003f0 bb d7 ad bb fd 7b 9f 3d 3d e5 75 bd 60 db 9d bc
       -0.005305258 0.07787321 -0.06003307 -0.019269645

lstm.bias_hh_l0 f4 [256]
000000 6c df df bd 33 44 90 3b 38 55 c9 bd cc e5 a2 3d
       -0.10931286 0.004402661 -0.09830707 0.079539865
000010 7a 8a 69 3d b6 eb f5 bd be d3 aa bc 6e 81 bc 3d
       0.057016827 -0.12007849 -0.02085292 0.09204374
000020 cf d6 ec bd 0f be 42 bd d3 76 9e bc 0c 4d cd bd
       -0.11564409 -0.047544535 -0.01934377 -0.10024461
000030 7f bc e0 3d cb 41 9e 3d e2 ae d8 3d 9c ff 8b 3d
       0.10973453 0.07727393 0.10580231 0.06835863
000040 aa 12 94 bd f3 e9 bf bd 0b be 8d 3d 4a d1 7b 3d
       -0.072301224 -0.09370794 0.069210134 0.06147889
000050 20 f3 95 3c aa 1e 20 bd 67 6f fe bc d1 d2 a2 bd
       0.018304408 -0.039091744 -0.03105898 -0.07950366
000060 99 26 b7 bd dd 76 2a 3d 1c 30 da bd ca df c4 bd
       -0.08942909 0.041617263 -0.106537074 -0.09612997
000070 23 64 3a 3d c5 d8 a1 3d 06 97 db 3c d4 83 17 3c
       0.045505654 0.07902674 0.026805412 0.009247739
000080 cc b6 19 3d 21 5b 63 bd f8 d5 cd 3d c4 77 ef 3d
       0.037527844 -0.05550683 0.10050577 0.11692765
000090 6f 16 14 bd 6c da a6 bd b6 1b bc bd 24 a0 80 3d
       -0.036154207 -0.081471294 -0.09184973 0.062805444
0000a0 ed 7a 80 3d 6b c6 9d 3d f1 56 ee 3d d7 8e 16 bc
       0.06273446 0.07703861 0.116376765 -0.009189329
0000b0 14 06 20 bd af 70 cd 3c 01 1d 35 ba 92 be e7 3d
       -0.039068297 0.025078146 -0.0006908924 0.11315645
0000c0 ab e8 05 3d 74 76 ed bd 2b c3 e4 bd f5 0b 6c 3d
       0.032692593 -0.11594859 -0.11170038 0.05762859
0000d0 9c 22 29 bc 17 e8 95 bb 89 21 9e 3d 59 b3 82 bd
       -0.010323193 -0.0045747864 0.0772124 -0.06381864
0000e0 4a 4e 6c 3c 08 cd f2 3b 2e 8c de 3c 8a 66 64 3b
       0.014422962 0.0074096955 0.027166452 0.0034851157
0000f0 33 6e f1 3d 37 9c 8c bd 3a 25 01 bd 9c bd e1 3c
       0.11788597 -0.06865733 -0.031529643 0.027556233
000100 93 e0 e9 bc b2 1d 3a bd 4a 5f 87 bd 2c 68 66 bd
       -0.028549468 -0.045438476 -0.06609972 -0.05625169
000110 bd e4 16 bd 94 a8 fa 3d 97 40 a2 bd f9 96 32 3d
       -0.036839236 0.12239185 -0.07922476 0.04360101
000120 3e dd e4 bd bb d7 0e bc 01 5e 22 3d 3a 13 a4 bd
       -0.11175011 -0.008718426 0.03964043 -0.0801148
000130 49 2e 01 be cd 36 90 3d be 79 ad bd dc a5 d3 3d
       -0.12615313 0.070417024 -0.08470486 0.103343695
000140 c9 78 68 bd bd 6f 69 bd 06 3a 96 3c b5 17 9e bd
       -0.056755815 -0.056991328 0.018338215 -0.077193655
000150 9c 26 5d 3e f9 be fe bc 00 34 93 3d 1a 58 7b 3c
       0.2159676 -0.031096922 0.071876526 0.015340829
000160 a1 06 b5 bc d4 32 ed 3d e6 53 23 bd 06 67 4f 3d
       -0.022097887 0.1158196 -0.039874934 0.05063536
000170 60 5e 81 bd 1a d3 b5 bd 47 6d 56 bd ff ed 80 3d
       -0.06316829 -0.08878155 -0.05235031 0.06295394
000180 b5 c4 94 bd 33 9a a5 3d de 30 43 3d d6 1d d7 3d
       -0.072640814 0.08086052 0.047654025 0.10503738
000190 45 98 e8 3d 56 f9 e3 3d 69 f6 db bc 3b 4b a7 bd
       0.11357168 0.111315414 -0.026850896 -0.08168646
0001a0 8d 38 a4 3d 65 ba 17 3e d2 f8 95 bd 0f a2 5b bd
       0.08018599 0.14817198 -0.07322849 -0.053621348
0001b0 2a 42 bb bd c1 85 87 bd cf 37 b5 3d ec 96 a8 3d
       -0.09143479 -0.066173084 0.08848535 0.08231911
0001c0 53 2a c9 3d 6a 01 58 bd 7e 6c ae bc 3e b7 f0 bd
       0.09822526 -0.052735724 -0.021291967 -0.11753701
0001d0 17 78 51 bd 2a 10 a2 bd 2c bb a3 3d dc 07 53 3d
       -0.051139917 -0.07913239 0.079946846 0.051521167
0001e0 7a cd c5 3d 71 9d b1 bd 3c b6 a4 bd 1a 43 2b bd
       0.09658332 -0.08672608 -0.08042571 -0.04181204
0001f0 41 14 f4 3d e4 2f 13 3c 51 3c f3 3d 45 5d a7 3d
       0.119179256 0.008983586 0.11876739 0.081720866
000200 15 1d c6 bd e0 5e e2 bd d2 b4 9a 3d 95 dc 4e bd
       -0.09673516 -0.11053252 0.0755402 -0.050503332
000210 f4 f1 26 bd 1a 64 37 bd a4 0b d6 3d 7b 16 ac bd
       -0.04075809 -0.0447732 0.10451439 -0.08402725
000220 ad b2 b0 3c 31 c5 b8 3c a7 89 91 bd 96 11 65 bd
       0.021569574 0.022554966 -0.07106333 -0.055924974
000230 0e 09 e1 bc a0 de 02 3e a2 57 ea 3d 0c a6 16 3d
       -0.027470138 0.12780237 0.11442496 0.03677945
000240 31 2d 0e 3d cb b9 23 bd 85 87 e7 bc 81 bb e8 3c
       0.034711067 -0.039972108 -0.028262863 0.028409721
000250 af b0 54 3c 09 b9 9a bd 61 54 72 3d 4f 72 f0 3d
       0.012981578 -0.07554824 0.0591625 0.11740553
000260 dc 85 9e 3d c7 97 ac bd ea 12 5d 3d b4 54 a5 3d
       0.077403754 -0.08427387 0.053973116 0.080727965
000270 ff a1 17 bd 49 4a 79 3d 82 6b a9 3d 2e 2a 9f 3d
       -0.037019726 0.06086186 0.082724586 0.07771717
000280 ad f5 1d bd df 14 34 bd f4 57 e6 3c 66 4a 68 bd
       -0.038564373 -0.043965217 0.028118111 -0.056711577
000290 de 3b c1 bd 1d 11 cc bc b0 9f 04 3e e4 2d b4 bd
       -0.09435247 -0.024910504 0.12951541 -0.087978154
0002a0 e7 10 7b bd 67 52 85 3d 1a af 13 bc a8 58 cc bd
       -0.061295416 0.065098576 -0.009013915 -0.09977847
0002b0 0b ff ae bd cc 9d 1f 3d c5 e1 b2 3d 99 fa b2 3d
       -0.08544739 0.038968846 0.08734468 0.08739204
0002c0 f7 da 06 3e 27 0d 49 3d cc a1 04 3e ac cb 81 3d
       0.13169466 0.04908481 0.12952346 0.063376755
0002d0 56 cc be bd 4d 29 5e bd 1e 67 ea bd 01 e4 f3 bd
       -0.09316318 -0.054238606 -0.11445449 -0.11908723
0002e0 44 31 a3 bd 80 ca eb 3b f4 e9 8d 3d a3 de 6f bd
       -0.07968381 0.0071957707 0.06929389 -0.058561932
0002f0 21 de 80 3d 79 e5 d8 bc 01 ce 65 bd bf a8 a8 3d
       0.06292368 -0.026476609 -0.056104664 0.08235311
000300 23 81 35 bc 64 cd d1 bd d8 38 d7 bc 30 c3 de bd
       -0.011078152 -0.10244253 -0.026272222 -0.10877073
000310 19 48 a8 bd c0 71 41 3c 54 89 a3 bc 3f 41 b8 3d
       -0.082168765 0.011806905 -0.019962944 0.0899682
000320 8a 1e 8b 3c 12 b4 91 3d 25 c7 aa 3d 03 cf 99 bd
       0.016982336 0.07114424 0.08338765 -0.075101875
000330 07 bf c7 bd 07 f4 69 bd 64 e4 02 3d 41 33 8c bb
       -0.097532324 -0.05711749 0.03195609 -0.004278571
000340 11 e8 18 3d 74 3a da bd 79 3e ab bc cf 8c a6 bd
       0.03733069 -0.1065568 -0.020903813 -0.08132326
000350 14 fe 8a 3d 4c 1a c1 bd db d4 2b bd b2 05 db 3d
       0.06786743 -0.09428844 -0.04195104 0.10694446
000360 48 e1 8d 3c 20 d8 0d 3d 8b 6a 95 bd 1d ad f5 3c
       0.017319337 0.03462994 -0.07295712 0.029989773
000370 8d a5 ad bd 42 04 5d bc bc a1 cf bd a3 e8 19 3c
       -0.08478842 -0.013489785 -0.1013827 0.009393844
000380 52 0c e6 3d c6 74 6a bd 18 29 b2 bd 79 97 fe 3d
       0.11232819 -0.05724027 -0.08699244 0.12431235
000390 7b 46 f0 3d e9 4f de bd cd 2d 08 3d e4 c8 c1 bc
       0.11732193 -0.108550854 0.033246804 -0.023655362
0003a0 d6 8b 82 3d ea ff 1f 3c 43 d4 ee bd 4f d4 5a bd
       0.06374328 0.0097656045 -0.116615795 -0.05342513
0003b0 dd 6f b4 3c 00 ba cd bd 2b b3 b5 bc 9c 35 1e 3d
       0.022025997 -0.10045242 -0.02218016 0.038625345
0003c0 df 76 2f bc 6f 5a dd 3a 65 71 fc 3d d5 3d 09 bb
       -0.010709493 0.0016887913 0.12326316 -0.0020941396
0003d0 38 88 73 3c 4a 82 26 3b be 44 0a 3d df a4 3b bd
       0.01486402 0.0025407248 0.033756964 -0.04581153
0003e0 b9 72 81 bd 00 44 4b bd d3 9b da 3d d1 3d 27 3c
       -0.0632071 -0.049625397 0.10674252 0.010207609
0003f0 fb 87 2c bd 6f 1d 8f bd db e1 dd 3d 84 85 31 bd
       -0.04212187 -0.06988036 0.10834094 -0.04334022
